src/main/resources/org/clas/aiModel/mlp_64h_4l_6cls.pt (torch, 74439 bytes, 9 tensors)

weight f4 [64, 12]
0	0xbf228987	-0.634911
1	0x3f5b72b3	0.8572189
2	0xbf293da3	-0.66109675
3	0x3e65e3e1	0.2245021
4	0x3f48f47c	0.78498054
5	0xbf11ef99	-0.5700622
6	0xbc6ca33e	-0.014443217
7	0xbc1ee4de	-0.009698121
8	0xbae16b4c	-0.0017198115
9	0xbaeedd19	-0.0018223851
10	0x3b119c9f	0.0022218598
11	0x3b8f10c9	0.0043660146
12	0xbe909f7a	-0.2824667
13	0xbe4bd7c3	-0.19906525
14	0xbe88c07e	-0.2670936
15	0xbe61169d	-0.21981283
16	0x3e04ef2d	0.12981863
17	0x3f0d6e40	0.55246353
18	0x3f3454e0	0.7044201
19	0x3d6e34f1	0.058155958
20	0x3eb7d118	0.35901713
21	0xbeb1efb8	-0.34753203
22	0xbec942c6	-0.39308757
23	0x3e5b4923	0.21414618
24	0xbecdf78c	-0.40227926
25	0xbf267065	-0.6501525
26	0x3f7e5afa	0.9935757
27	0x3f084bee	0.5324086
28	0xbf51c5fb	-0.8194272
29	0x3eb974e5	0.36221996
30	0xbabaedcc	-0.0014261543
31	0x3a7835ba	0.0009468455
32	0xbb172ca1	-0.0023067372
33	0x3a3c5bb9	0.00071852986
34	0x3a89b3be	0.0010505838
35	0x3b461fa8	0.003023127
36	0x3c9c0243	0.019044047
37	0x3ebad279	0.36488703
38	0xbe20f288	-0.15717518
39	0x3e5ddbe9	0.2166592
40	0xbed50181	-0.4160271
41	0x3d2bc278	0.041933507
42	0x3ee7ca28	0.4527142
43	0x3f2ac06e	0.66699874
44	0xbf2a855d	-0.66609746
45	0xbf7cc49e	-0.98737514
46	0x3f42e064	0.7612364
47	0x3e230aea	0.15922132
48	0xbe935b74	-0.2878071
49	0xbe55295c	-0.20816559
50	0x3d9cc7c7	0.07655292
51	0xbeb7e553	-0.35917148
52	0x3d6cbf4d	0.057799626
53	0x3c0be8db	0.008539404
54	0xbe896373	-0.26833686
55	0x3e5e172d	0.21688528
56	0x3f6d437f	0.92681116
57	0x3f2e94aa	0.68195593
58	0x3e7bdb2a	0.24595323
59	0xbf57a33b	-0.84233445
60	0xbe4cfee6	-0.20019111
61	0xbe90bdc2	-0.28269774
62	0x3e74964c	0.23885459
63	0xbda12462	-0.078682676
64	0x3ea31db2	0.31858593
65	0xbd95ec48	-0.07320458
66	0x3ead384a	0.33832008
67	0x3e841d71	0.25803712
68	0xbf07bf40	-0.530262
69	0xbf646a74	-0.89224935
70	0x3f1ff2f9	0.6248012
71	0xbe6752b7	-0.22590147
72	0x3e0e9acf	0.13926242
73	0x3de9d900	0.114183426
74	0xbd36eb3b	-0.044657927
75	0xbdd01e11	-0.10161985
76	0xbf08e296	-0.5347074
77	0xbe2ff1cb	-0.1718208
78	0xbe392c1b	-0.18083231
79	0x3e192972	0.14957216
80	0xbec2f50b	-0.38077578
81	0xbedeceb3	-0.43517074
82	0x3f0310f2	0.5119773
83	0xbe830349	-0.25588444
84	0x3f418691	0.7559596
85	0x3f1f8cc6	0.6232418
86	0xbf8e271c	-1.1105685
87	0xbf32c4f3	-0.6983177
88	0x3e0dbdb4	0.13841897
89	0x3e49d3f0	0.19709754
90	0x3b6be18d	0.0035992593
91	0x3b268074	0.0025406154
92	0x3c6594af	0.0140125
93	0x3b9690e1	0.0045949076
94	0xbb0e04e4	-0.0021670396
95	0xbb2e3f38	-0.0026587974
96	0x3e502fd5	0.20330746
97	0x3e4340b7	0.19067656
98	0xbd9b2769	-0.07575876
99	0x3ebd5cff	0.36985013
100	0xbe7310ec	-0.23736924
101	0xbea28a2e	-0.31746048
102	0xba290fd9	-0.00064492
103	0x3ec7686a	0.3894685
104	0xbed4a1bb	-0.4152964
105	0xbf09b122	-0.5378591
106	0xbe2bc5a1	-0.16774608
107	0x3f01e2fa	0.50736964
108	0x3e4ef312	0.20209911
109	0xbeb0ec23	-0.34555158
110	0xbf2af576	-0.66780794
111	0xbdce15cb	-0.100627504
112	0xbd738f30	-0.059462726
113	0xbe0b3af6	-0.1359671
114	0x3f7816d4	0.9690983
115	0x3f647290	0.8923731
116	0xbdd61250	-0.104527116
117	0xbd164b39	-0.03669283
118	0xbd9db23f	-0.07700013
119	0x3cb971cd	0.022637272
120	0xbddc38a8	-0.10752994
121	0x3e504def	0.2034223
122	0x3ebcb5a4	0.3685733
123	0x3f206c00	0.62664795
124	0xbf0c5383	-0.5481493
125	0xbf87a907	-1.0598458
126	0x3e25874d	0.16164894
127	0xbe4c51e8	-0.1995312
128	0x3d927378	0.0715093
129	0x3e0adf1c	0.13561672
130	0x3e6aae8a	0.22918144
131	0x3e57f04a	0.21087757
132	0x3f847f70	1.0351391
133	0xbf8d2f3f	-1.1030043
134	0x3e5912fd	0.2119865
135	0xbf04a92b	-0.5182063
136	0xbae91196	-0.001778173
137	0x3e874bf2	0.2642513
138	0x3c018fc5	0.0079078125
139	0x3c9592f3	0.018258547
140	0xbc0b47a8	-0.008500971
141	0xbbb2eb2d	-0.005460164
142	0xbaf202d0	-0.0018463973
143	0xbc36c9a6	-0.011156475
144	0x3eff2f2f	0.49840686
145	0x3df3bd57	0.11901348
146	0xbc6e926a	-0.014561275
147	0xbe312e3b	-0.17302792
148	0xbf2f75a4	-0.6853888
149	0xbfa92a63	-1.321606
150	0x3f79d1ff	0.97586054
151	0x3f68aa1d	0.9088457
152	0xbda4d741	-0.08048869
153	0xbd8ca5da	-0.06867571
154	0x3be9c569	0.007134129
155	0x3dc9cbb5	0.09853307
156	0xbd46ce88	-0.048536807
157	0x3c9bca24	0.019017287
158	0x3db34339	0.08753056
159	0x3dce8830	0.100845695
160	0x3f02daa0	0.51114845
161	0xbed305c0	-0.41215324
162	0xbf17ea4b	-0.5934188
163	0x3ea02e55	0.3128535
164	0xbec6b4b1	-0.38809732
165	0x3ea1f453	0.31631717
166	0x3e85f6b6	0.26164788
167	0xbe95fe7b	-0.29295716
168	0xbf728423	-0.94732875
169	0xbeba13b9	-0.36343172
170	0x3fa01719	1.2507049
171	0x3ef9b30f	0.48769423
172	0xba58e0c2	-0.00082732376
173	0xbec620f5	-0.3869702
174	0x3b1c403a	0.0023841993
175	0xbc230e64	-0.009952161
176	0x3a2077cf	0.00061213685
177	0xbae36010	-0.0017347354
178	0x3b3297ab	0.0027251046
179	0xbc0e7eed	-0.008697254
180	0x3f187e34	0.5956757
181	0x3ed1e47a	0.40994626
182	0xbf52544b	-0.8215987
183	0xbf36a7fc	-0.71350074
184	0xbdb47fdd	-0.088134505
185	0xbe3e1190	-0.18561387
186	0x3ea65cc3	0.32492647
187	0x3ea3f0e7	0.3201973
188	0x3e1a124c	0.15046042
189	0x3e4d989a	0.20077744
190	0x3d0dcb6f	0.034617838
191	0x3d054084	0.03253223
192	0x3ebf8e1c	0.37413108
193	0xbf64f13a	-0.8943058
194	0x3ec02d18	0.37534404
195	0x3efd4382	0.49465567
196	0xbf7b279f	-0.9810733
197	0x3f2364a2	0.6382543
198	0xbb119c2d	-0.0022218332
199	0x3a4c2728	0.0007787817
200	0xbb215f5b	-0.0024623487
201	0xbb410518	-0.00294525
202	0x3a8266e0	0.0009948872
203	0x3a2f84db	0.0006695517
204	0x3e1ca862	0.15298608
205	0xbdff2a13	-0.12459197
206	0xbd1b99b9	-0.0379884
207	0xbe4dd368	-0.20100176
208	0xbdda191e	-0.10649322
209	0xbecf64f2	-0.40506703
210	0x3e62ac37	0.22136007
211	0x3f420e83	0.75803393
212	0x3cba0bd3	0.022710716
213	0xbdad3735	-0.084577955
214	0x3e8c3160	0.2738142
215	0x3e0e0e90	0.13872743
216	0xbda2c0e8	-0.0794695
217	0xbeca34bc	-0.39493358
218	0x3f024089	0.5087972
219	0xbe5b9200	-0.21442413
220	0x3dc1c4e5	0.09461383
221	0x3e695ac1	0.22788526
222	0xbed468d7	-0.41486236
223	0x3f0aecfe	0.5426787
224	0x3b4a91ef	0.0030909737
225	0xbe3261ef	-0.17420171
226	0xbe9eedec	-0.31040895
227	0x3e8770b8	0.26453185
228	0x3f0062fb	0.5015103
229	0xbed4ef2a	-0.41588718
230	0xbea3ef09	-0.32018307
231	0x3f10a85d	0.565069
232	0xbf9c2c9d	-1.2201115
233	0x3f594b5f	0.8488063
234	0x3b57ee61	0.0032948481
235	0x3ab416f9	0.0013739757
236	0xbb8ffe8f	-0.0043943594
237	0xbb8d2322	-0.0043071667
238	0xbc19286b	-0.009348015
239	0xbb8fa693	-0.004383871
240	0x3f3382c5	0.70121413
241	0x3eaaddb0	0.3337226
242	0xbfaa77f6	-1.3317859
243	0xbdf272d0	-0.11838305
244	0x3f213522	0.629717
245	0xbe85e2c9	-0.26149586
246	0x3b06f691	0.0020593742
247	0x3b9501bd	0.0045473264
248	0xbb57adfe	-0.0032910104
249	0xbb52a95e	-0.0032144408
250	0xbc0e9b7b	-0.008704062
251	0xbb53d309	-0.0032321832
252	0x3f310dc3	0.69161624
253	0xbf2d8592	-0.6778194
254	0x3e82d87e	0.25555795
255	0xbe5f7a4e	-0.21824

bias f4 [64]
0	0xbcc14b92	-0.023595605
1	0x3de340e3	0.110963605
2	0x3c86f0b0	0.01647219
3	0xbf7fef68	-0.9997468
4	0xbf26b96b	-0.65126675
5	0xbf5bbc07	-0.8583378
6	0xbf2b5f36	-0.66942155
7	0x3c5497cf	0.012975647
8	0xbf36e00f	-0.71435636
9	0x3e8b9f2d	0.2726988
10	0x3e44bd6e	0.19212887
11	0x3c019cb4	0.007910896
12	0x3e59d265	0.21271665
13	0xbe4c5c5b	-0.19957106
14	0xbadf0124	-0.001701389
15	0x3eb36155	0.35035196
16	0x3c4f79a8	0.012663282
17	0xbe516c0b	-0.20451371
18	0xbdde5f93	-0.10858073
19	0xbc40d74c	-0.011770081
20	0xbbb6b09f	-0.005575254
21	0x3c863175	0.016381005
22	0xbf7210fd	-0.9455717
23	0x3b0d68ae	0.0021577287
24	0x3b082fde	0.0020780484
25	0xbee78735	-0.45220342
26	0xbe1ac6a7	-0.15114842
27	0xbbed48ba	-0.0072413357
28	0x3ccdfd19	0.0251451
29	0xbe957404	-0.29190075
30	0xba377934	-0.00069989567
31	0xbe92c38b	-0.28664812
32	0xbe8008bf	-0.25006673
33	0xbf247456	-0.64240015
34	0xbbaa9efa	-0.0052069398
35	0xbec66b89	-0.38753918
36	0xbf0ec9b1	-0.55776507
37	0x3cb790fb	0.022408
38	0xbe82edfc	-0.25572193
39	0xbf3e73b6	-0.7439531
40	0xbe471698	-0.19442213
41	0x3dc1c2c2	0.09460975
42	0xbd962e67	-0.07333069
43	0xbe463a44	-0.19358164
44	0xbec1e580	-0.37870407
45	0xbe607eaa	-0.21923319
46	0xbebdaee9	-0.37047508
47	0xbf6b7447	-0.919743
48	0xbe34191a	-0.175877
49	0x3d0c6566	0.03427639
50	0xbe9f34e9	-0.31095055
51	0xbc2d1636	-0.0105643775
52	0x3ca1059b	0.019655993
53	0xbf09fcf2	-0.5390159
54	0xbf506398	-0.8140197
55	0xbbcb7a0d	-0.006209618
56	0xbe2dca34	-0.16971666
57	0xbf5545d8	-0.833097
58	0x3df0b123	0.11752536
59	0x3cf596e0	0.02997917
60	0xbc2f216f	-0.0106891235
61	0xbe907716	-0.28215855
62	0xbe82ac1f	-0.25521943
63	0x3c3c472e	0.01149158

weight f4 [64, 64]
0	0x3f7086c8	0.9395566
1	0xbedecb97	-0.43514702
2	0x3dc46148	0.095888674
3	0xbde7b5c6	-0.113139674
4	0xbe72dd63	-0.23717265
5	0xbdad2750	-0.08454764
6	0x3d5d2227	0.05398765
7	0xbe0d522c	-0.13800877
8	0xbe1875b3	-0.14888649
9	0xbf436068	-0.7631898
10	0xbe289117	-0.16461597
11	0xbf826805	-1.0187994
12	0xbf6bd677	-0.9212412
13	0xbe177e45	-0.14794262
14	0x3ec7f8b5	0.39056936
15	0xbf76a72f	-0.9634885
16	0xbe6a570c	-0.22884768
17	0xbd921c21	-0.071342714
18	0xbe29f32e	-0.16596672
19	0xbf391dc2	-0.7231103
20	0x3e309d4b	0.17247503
21	0x3e1f2ebf	0.15545176
22	0xbf3a244c	-0.72711635
23	0xbf6c5380	-0.9231491
24	0xbeacb365	-0.33730617
25	0x3f2b8f61	0.67015654
26	0xbda31d1e	-0.07964538
27	0xc0b01ed4	-5.503763
28	0x3d25b640	0.04045701
29	0x3a70f121	0.00091912044
30	0xc0237c4a	-2.554461
31	0x3f83f89f	1.0310248
32	0xbef0bcb9	-0.47018984
33	0xbe0b7971	-0.13620545
34	0x3eeb013b	0.45899376
35	0xbd959fc7	-0.07305866
36	0xbe6ccade	-0.23124263
37	0xbf3ad0da	-0.7297493
38	0xbe5c0b73	-0.21488743
39	0xbdef7416	-0.116920635
40	0xbdec5a18	-0.115406215
41	0xbe6f5648	-0.23372757
42	0x3f5cdc45	0.86273605
43	0xbe2662e8	-0.16248667
44	0xbf011781	-0.5042649
45	0xbdb0183a	-0.08598371
46	0x3d3bda1b	0.0458623
47	0xbe80c4ef	-0.25150248
48	0xbd1281c6	-0.035768293
49	0x3f31b63d	0.694187
50	0x3d0ad9f1	0.03389925
51	0x3f38be2e	0.7216519
52	0xbf317e68	-0.69333506
53	0xbd543b5a	-0.051814415
54	0xbe3b363e	-0.1828241
55	0xc015571e	-2.3334422
56	0xbe872a74	-0.26399577
57	0xbf1fa501	-0.6236115
58	0xbef85260	-0.48500347
59	0x3d46b851	0.04851562
60	0xbf4b42b5	-0.7939866
61	0xbdca3f47	-0.098753504
62	0xbee97f00	-0.45604706
63	0x3da8c4b9	0.08240647
64	0x3f187cb8	0.59565306
65	0xbd17563b	-0.03694747
66	0xbfaef96c	-1.3669868
67	0x3f7a7f03	0.97850055
68	0x3f8fb19c	1.1226077
69	0x3fa9c0af	1.3261927
70	0x3f4b5b50	0.79436207
71	0xbe823238	-0.2542894
72	0x3fa85540	1.3151016
73	0x3df99f39	0.121885724
74	0xbabf64b6	-0.0014602158
75	0xbe7f5c73	-0.2493761
76	0x3f02a8fd	0.51039106
77	0x3d3b08a8	0.045662552
78	0xbf00c635	-0.5030244
79	0x3de34a7c	0.11098191
80	0xbf77709f	-0.9665622
81	0x3f883063	1.0639766
82	0xbd5a5dd1	-0.053312127
83	0xbe62733c	-0.22114271
84	0x3fac7a7c	1.3474879
85	0xbf52f302	-0.8240205
86	0x3f94776e	1.1598947
87	0x40c73c21	6.22609
88	0xbf6c611f	-0.92335695
89	0xbd5fd579	-0.054646943
90	0xbd09b772	-0.033622213
91	0x4048da59	3.138327
92	0xbd05e15d	-0.032685626
93	0xbd8181de	-0.06323598
94	0x3ea14d51	0.315043
95	0xbcc6ef00	-0.024283886
96	0xbe83e3d0	-0.25759745
97	0xbda6adac	-0.08138594
98	0x405c8a90	3.4459572
99	0x3f84ad7d	1.0365444
100	0x3f60dd7e	0.8783797
101	0x3fbb3b3e	1.4627454
102	0x3f5c5652	0.86069214
103	0x3f98d48f	1.1939868
104	0x3e89155b	0.26774105
105	0xbcde1408	-0.027109161
106	0xbbd3a998	-0.006459426
107	0xbc87d023	-0.01657874
108	0x3f91eb91	1.1400014
109	0x3db2dbea	0.087333515
110	0x3d76701a	0.060165502
111	0x3f0dac7f	0.55341333
112	0xbd05729f	-0.032580014
113	0xc0035faf	-2.052715
114	0x3d12d681	0.035849098
115	0x3f549932	0.8304626
116	0xbea508ce	-0.3223328
117	0x3fa5e521	1.296055
118	0x3fc46529	1.5343372
119	0x40191a7f	2.3922422
120	0xbc8050b1	-0.015663477
121	0x3fb277b6	1.3942783
122	0x3f1cda7f	0.612709
123	0x3d5eb2e6	0.05436983
124	0xc0d9c66f	-6.805473
125	0x3f9441c2	1.1582568
126	0x3d86900d	0.06570444
127	0xbf94bf28	-1.1620836
128	0x3f328af3	0.6974327
129	0xbcaa104d	-0.020759726
130	0xc079def6	-3.9042335
131	0x3b8d7897	0.004317354
132	0x3f946744	1.1594014
133	0x3e6b50d8	0.22980058
134	0x3a72f0b5	0.00092674355
135	0x3f7bed8a	0.9840933
136	0x3f9fe530	1.2491817
137	0x3e711e12	0.23546627
138	0xbe7440aa	-0.23852792
139	0xbf5b18ac	-0.8558452
140	0x3f2283fb	0.63482636
141	0x3af4d961	0.0018680507
142	0xbfc1d1cc	-1.514215
143	0xbd11a5a6	-0.035558365
144	0xc0c4ebf5	-6.1538033
145	0x3f50e3fa	0.81597865
146	0x3d8279c8	0.06370884
147	0xbfa080f8	-1.2539358
148	0x3fac3b31	1.3455564
149	0xc01ffaf4	-2.499692
150	0x3f9194e1	1.1373559
151	0x4043902a	3.055674
152	0x3e91ec01	0.2850037
153	0xbdb36a6f	-0.08760535
154	0xbd68912d	-0.056779075
155	0x401bcf0e	2.4345126
156	0xbd8e40d5	-0.069459595
157	0x3d90c1c3	0.07068207
158	0x403f0987	2.9849565
159	0xbe1660eb	-0.14685409
160	0xbf81ad51	-1.0131017
161	0xbe19949e	-0.14998099
162	0x404f9f2d	3.2440903
163	0x3fa4ffe3	1.289059
164	0x3f1f4983	0.62221545
165	0x3f707039	0.9392124
166	0x3f524d6b	0.8214938
167	0x3f9ea3ed	1.2393776
168	0x3f036080	0.5131912
169	0xbdb4cee1	-0.088285215
170	0xbed58167	-0.4170029
171	0xbe25550a	-0.16145721
172	0x3f7b78c9	0.9823118
173	0xbd9e7b6e	-0.07738386
174	0xbdc2f515	-0.09519402
175	0x3f1ffc6d	0.62494546
176	0xbe505727	-0.20345746
177	0xbfeae5e9	-1.8351413
178	0xbd9eacde	-0.077478155
179	0x401f757b	2.4915454
180	0xbf10a664	-0.5650389
181	0x3f927733	1.1442627
182	0x3f9e8e15	1.238711
183	0xbf071554	-0.5276692
184	0x3e18acdb	0.14909689
185	0x3f9c74e2	1.222317
186	0x3f73fbc9	0.9530607
187	0xbb57a2d2	-0.0032903445
188	0x3f8a727d	1.0816189
189	0x3f70557c	0.9388044
190	0x3e1bd144	0.15216547
191	0xbfc043bc	-1.5020671
192	0x3eecd9e2	0.4625998
193	0xbe2011b0	-0.15631747
194	0xbf30d5be	-0.69076145
195	0x3fda2889	1.704362
196	0x3fb202ab	1.3907064
197	0x3f86bd16	1.0526454
198	0x3f8e7097	1.112811
199	0xbf1ab367	-0.60429996
200	0x3fdfae02	1.7474978
201	0xbe911065	-0.2833282
202	0x3dc2bc67	0.09508591
203	0xbf6d5eb1	-0.9272261
204	0x3fe0b76d	1.7555977
205	0x3cb0e02a	0.021591265
206	0x3f2b2345	0.6685069
207	0xbea3dd11	-0.32004598
208	0xc02972ac	-2.647624
209	0x40118f6f	2.2743795
210	0xbce3184b	-0.027721545
211	0xbf859d47	-1.0438622
212	0x3f291a99	0.6605621
213	0xc112da89	-9.178353
214	0x3f6e0cca	0.92988265
215	0xc04e6d8e	-3.2254367
216	0x3fa23fa4	1.2675672
217	0xbce68904	-0.028141506
218	0x3cff48b4	0.031162597
219	0xc04073d2	-3.007069
220	0x3d0fa25f	0.03506696
221	0xbc09a3cf	-0.008400871
222	0x40c1eb71	6.0599904
223	0xbdb8e436	-0.09027903
224	0xbcd168f4	-0.02556274
225	0x3e1af965	0.15134199
226	0x3f92210e	1.1416337
227	0x3f82bc0a	1.0213635
228	0x3fb23064	1.3921018
229	0x3fcf68b5	1.6203829
230	0x3f8d4605	1.1036993
231	0x3fbf8015	1.4960963
232	0x3f15dea9	0.5854288
233	0x3c547bb9	0.012968951
234	0xbf04b569	-0.5183931
235	0xbe325840	-0.17416477
236	0x3f6147ea	0.8800036
237	0x3cb69a60	0.022290409
238	0xbde51119	-0.11184902
239	0x3f61a7e3	0.881468
240	0xbe26865a	-0.16262189
241	0x3e8c3bb3	0.27389297
242	0xbda747c8	-0.08167988
243	0x404bea59	3.1861784
244	0x3da2d3de	0.07950567
245	0x3fce42a7	1.6114091
246	0x3ff9413b	1.9473032
247	0x3cd32813	0.025775945
248	0x3cf4e685	0.029895077
249	0x4044b344	3.0734415
250	0x3fb949ae	1.447561
251	0x3d435148	0.047684938
252	0x3f4700ec	0.7773578
253	0x3fc16a06	1.5110481
254	0xbca307b6	-0.019901138
255	0xc0acace3	-5.3961043

bias f4 [64]
0	0xbe4ce8b2	-0.20010641
1	0x3c251b52	0.010077314
2	0x3b9b6d28	0.004743237
3	0xbc96bb0d	-0.01839974
4	0x3bb892e0	0.0056327432
5	0xbd909360	-0.070593596
6	0x3bf17b03	0.0073694005
7	0xbffd98d1	-1.9812261
8	0x3b46a1b0	0.0030308776
9	0xbcc021a8	-0.023453549
10	0xbd65e7f7	-0.056129422
11	0xbcc28c24	-0.023748465
12	0xbcdf02ac	-0.027222954
13	0xbdba1c86	-0.09087472
14	0xbca0852b	-0.01959475
15	0xbbab46cd	-0.005226946
16	0xbdfe5af8	-0.12419695
17	0xbd83554a	-0.06412752
18	0xbdd4340c	-0.1036149
19	0xbda99b9d	-0.08281634
20	0xbcb667e6	-0.02226634
21	0xbd093b37	-0.033503737
22	0xbd53dd6d	-0.05172484
23	0xbdb3fb63	-0.087881826
24	0x3c9415f2	0.01807687
25	0xbc971c8e	-0.018446233
26	0xbb22cccf	-0.0024841314
27	0x3c8bdeff	0.017074106
28	0x3c337450	0.010953024
29	0xbf3a9919	-0.7288986
30	0xbda03b29	-0.07823784
31	0xbd2d43f5	-0.042301137
32	0xbbb2e137	-0.0054589766
33	0xbdf3e4d8	-0.11908883
34	0xbcc2b68e	-0.02376869
35	0xbd47ee5b	-0.048811298
36	0xbcaf9a95	-0.021436015
37	0xbd9ef557	-0.077616386
38	0xbc458b8f	-0.012057199
39	0xbcf774d5	-0.030207077
40	0xbd5af749	-0.053458486
41	0x3ae0edeb	0.0017160749
42	0x3a987a02	0.0011633041
43	0xbb8c89f9	-0.0042889086
44	0xbd0c8417	-0.03430566
45	0xbd75484c	-0.0598834
46	0xbd1389ce	-0.036020093
47	0xbd779da3	-0.06045307
48	0xbd55751a	-0.05211363
49	0x3c19ce9c	0.009387638
50	0xbd66bd7c	-0.05633305
51	0x3cc2afdc	0.023765497
52	0x3cab7f3b	0.020934692
53	0xbddf4a1c	-0.10902807
54	0xbd9f26d8	-0.07771081
55	0xbdddf4c7	-0.10837703
56	0x3c018efa	0.007907623
57	0xbd55754b	-0.052113812
58	0xbcbf2425	-0.023332665
59	0xbd3762cd	-0.04477196
60	0xbc3dde88	-0.0115887
61	0x3c354d10	0.011065736
62	0xbd879427	-0.06620055
63	0xbdc59722	-0.09647967

weight f4 [64, 64]
0	0xbfb8bf55	-1.443339
1	0x3f6d93f9	0.92803913
2	0x3e63b81f	0.22238205
3	0x3ee3c645	0.44487205
4	0x3d8d2489	0.06891734
5	0xbf3f2030	-0.7465849
6	0xbe773e59	-0.24144877
7	0xbceab9b7	-0.028653009
8	0x3f9bd295	1.217364
9	0x3edb9828	0.42889524
10	0x3e1d5833	0.15365677
11	0xbf33207f	-0.6997146
12	0xbfacd673	-1.3502945
13	0xbec257cc	-0.3795761
14	0xbdd13f3a	-0.10217138
15	0xbef52998	-0.47883296
16	0xbf068520	-0.5254688
17	0xbe428271	-0.18995072
18	0xbf56483a	-0.8370396
19	0x3fb6af28	1.4272203
20	0x3dd554dc	0.10416576
21	0x3ed065e1	0.40702727
22	0x3ecd69b5	0.4011971
23	0xbe23c2a5	-0.1599222
24	0xbeb14816	-0.3462531
25	0xbfa9c586	-1.3263404
26	0xbed7666c	-0.4207033
27	0x3c51c94e	0.012804342
28	0xbf659e5c	-0.8969476
29	0xbe701891	-0.23446871
30	0xbd9ed3ff	-0.07755279
31	0xbe4f8655	-0.20266087
32	0xbf3c656b	-0.7359225
33	0xbf54809c	-0.8300874
34	0xbf58e972	-0.8473121
35	0x3e116b5c	0.1420111
36	0xbe820e66	-0.2540161
37	0x3f4c1933	0.7972595
38	0x3eaf8e24	0.34288132
39	0xbf80563f	-1.002632
40	0xbf96750d	-1.1754471
41	0x3f3f3786	0.746941
42	0xbee05109	-0.43811825
43	0x3f0ba14e	0.54543006
44	0x3f41a26a	0.7563845
45	0x3e81482c	0.25250375
46	0x3fb9261e	1.4464757
47	0xbf8bb176	-1.0913532
48	0xbdb88341	-0.0900941
49	0xbf4d4d3a	-0.80195963
50	0x3f06dc67	0.5268006
51	0xbe525c88	-0.2054311
52	0xbd40d034	-0.047073558
53	0x3fca6b29	1.5813953
54	0x3fe27239	1.7691108
55	0xbcec78c6	-0.028866183
56	0xbfaff668	-1.3747072
57	0x3f30273a	0.68809855
58	0x3dc5a7ec	0.09651169
59	0xbf8cb479	-1.0992576
60	0xbf7c8b0d	-0.98649675
61	0xbf13851d	-0.5762499
62	0xbf0ef6a2	-0.5584508
63	0xbf8c7496	-1.0973079
64	0xbe0fe9e8	-0.14054072
65	0xbefdf936	-0.49604195
66	0x3de508c5	0.11183313
67	0x3f400174	0.7500222
68	0x3f55e87a	0.83557856
69	0xbe810ad6	-0.2520358
70	0x3f1cc3d6	0.6123632
71	0x3d4896c1	0.048971895
72	0xbfc500c4	-1.5390859
73	0xbd9b0ecb	-0.07571181
74	0x3c530955	0.012880643
75	0xbe947017	-0.28991768
76	0x3fb0cfa0	1.3813362
77	0x3e931b6f	0.28731868
78	0xbec6e238	-0.38844466
79	0x3e89c3d9	0.26907232
80	0x3eb1f158	0.34754443
81	0xbff32b9e	-1.8997686
82	0xbe90828d	-0.28224602
83	0x3ebed211	0.37269643
84	0x3ed24aad	0.41072598
85	0x3e1ea03c	0.15490812
86	0xbf518f3a	-0.8185917
87	0x3d38b884	0.045097843
88	0xbe1c1067	-0.15240632
89	0x3f96d0a9	1.1782428
90	0xbd900703	-0.070325874
91	0x3ea537fa	0.3226927
92	0xbd5273f7	-0.051380124
93	0x3d038b05	0.032115
94	0xbdba32c4	-0.09091714
95	0xc03454f6	-2.8176856
96	0xbdc5a430	-0.09650457
97	0x3eea5b09	0.4577258
98	0x3f8988c7	1.0744866
99	0xbe2caf5f	-0.16863774
100	0xbd7ce1c7	-0.061738756
101	0x3f47949e	0.77961147
102	0xbf369c0f	-0.71331877
103	0x3ee02ea2	0.43785578
104	0xbf033aea	-0.5126177
105	0x3d8fee96	0.070279285
106	0xbd3f2278	-0.04666373
107	0xbe76fd03	-0.24119954
108	0x3f944de0	1.1586266
109	0xbdc73d5b	-0.097284995
110	0x3e842967	0.25812837
111	0xbe7b13dd	-0.24519296
112	0xbd122a26	-0.035684727
113	0xbeea690f	-0.45783278
114	0xbebc3630	-0.36760092
115	0xbdfd1e39	-0.1235928
116	0x3ac579ec	0.0015066243
117	0x3eac9b1f	0.33712098
118	0x3f8c8a8c	1.0979781
119	0xbdbebb44	-0.09313062
120	0xbef9267e	-0.4866218
121	0xbebe8784	-0.37212765
122	0xbe0ac528	-0.13551772
123	0xbe4200c1	-0.189456
124	0x3f37c6b0	0.7178755
125	0x3dabf4bb	0.08396288
126	0xbe516a24	-0.20450646
127	0xbe1fcd6b	-0.15605704
128	0x3f5f1b13	0.87150687
129	0xbcd1e011	-0.025619539
130	0x3ef498e1	0.47772887
131	0xbf319f6a	-0.6938387
132	0xbf9526d0	-1.165247
133	0xbd0b250d	-0.03397088
134	0x3e083a16	0.13303408
135	0xbfc49383	-1.5357517
136	0xbf7eaff3	-0.9948723
137	0x3f2326dd	0.63731176
138	0x3f2da879	0.67835194
139	0x3f2751c9	0.6535917
140	0xbeb30956	-0.3496806
141	0x3ed5a5d5	0.41728082
142	0x3f819e1f	1.012638
143	0x3dfd77cb	0.12376364
144	0x3eb1e13b	0.3474215
145	0xbf86674d	-1.0500275
146	0x3f413eed	0.7548664
147	0xbf096e13	-0.53683585
148	0x3f2671f2	0.65017617
149	0x3f65e672	0.89804757
150	0x3ec39a63	0.38203725
151	0x3ddf1e56	0.10894458
152	0x3ece9baf	0.40353152
153	0xbfd63ca7	-1.673726
154	0x3e341754	0.17587024
155	0xc0160c4a	-2.3445
156	0xbfc1c333	-1.5137695
157	0xbf8e662c	-1.112493
158	0xbdb08cfb	-0.0862064
159	0xbeb2d800	-0.3493042
160	0xc009884a	-2.1489434
161	0xbf1049ff	-0.5636291
162	0xbfa88caa	-1.3167927
163	0xbf1c7c7d	-0.61127454
164	0xbf8d6810	-1.1047382
165	0x3f1e57c2	0.6185266
166	0xbf9cac9b	-1.2240175
167	0x3f3c6868	0.7359681
168	0x3f50bfdb	0.8154275
169	0xbe32ccf8	-0.17461002
170	0xbf554894	-0.8331387
171	0xbe9155e6	-0.28385848
172	0x3f36552d	0.7122372
173	0xbe576c13	-0.21037321
174	0xbf633eee	-0.887679
175	0xc05705f6	-3.3597388
176	0xbd827321	-0.06369615
177	0xbe81c54c	-0.25345838
178	0xbf654bf4	-0.8956902
179	0x3f030d3e	0.5119208
180	0x3dde9043	0.108673595
181	0xbcd27c7b	-0.025694123
182	0xbf1ed4b1	-0.6204329
183	0xbbe1c3f4	-0.0068898145
184	0x3f9dd821	1.2331582
185	0xbe4784ca	-0.19484249
186	0xbf3fbc6a	-0.7489687
187	0x3f6f9487	0.9358601
188	0xc0583a26	-3.378549
189	0xbfb46477	-1.409316
190	0x3f167b19	0.5878158
191	0x3ed48367	0.41506502
192	0x3eae8f0a	0.34093505
193	0xbf2a6608	-0.6656194
194	0xbd02faeb	-0.031977575
195	0xc042a27f	-3.041168
196	0x3e1049b3	0.14090614
197	0x3e03bdc6	0.12865362
198	0xbfabd86d	-1.3425423
199	0xbf80f8dc	-1.0075946
200	0xc0282f59	-2.6278899
201	0x3e2a9e28	0.16661894
202	0x3e84ad06	0.25913256
203	0xbea7f74d	-0.32805863
204	0xbeafd06e	-0.34338707
205	0xc00a95e1	-2.165398
206	0x3ccf3646	0.025294434
207	0xbf05254a	-0.52010024
208	0x3dc0b2e7	0.09409123
209	0xbfe7edd4	-1.8119454
210	0x3eba9ba3	0.36446866
211	0xbfc1e0ae	-1.5146692
212	0x3f205640	0.6263161
213	0x3f0d0bef	0.55096334
214	0xbeae50c3	-0.3404599
215	0x3dedce23	0.11611583
216	0x3dc6d4e2	0.09708573
217	0xbf568035	-0.8378938
218	0x3efb5a85	0.49092498
219	0xbe5b2390	-0.21400285
220	0x3d40de3b	0.047086935
221	0xbf0e2f3a	-0.5554081
222	0x3e0f93b9	0.14021195
223	0xbf0ed33a	-0.55791056
224	0xbd1286ff	-0.035773274
225	0xc017e95b	-2.373618
226	0xc028ab18	-2.6354427
227	0xbe754f8b	-0.23956124
228	0xbf67f1d6	-0.9060339
229	0xbfb7ac4a	-1.4349453
230	0xbfd2fd10	-1.6483479
231	0xbecfdb88	-0.40597177
232	0xbeda43c4	-0.42629826
233	0xbfdacde6	-1.7094085
234	0xc0057021	-2.0849688
235	0xc031a8ca	-2.775927
236	0xbf8c46da	-1.0959122
237	0xbf6ac652	-0.9170886
238	0xbfe49504	-1.7857976
239	0x3ed4ddaa	0.41575366
240	0x3d4cd01a	0.05000315
241	0x3f1cac4d	0.6120041
242	0xbfb6f174	-1.4292436
243	0x3df0ad16	0.117517635
244	0x3e0d1690	0.13778138
245	0xbf4d2d93	-0.80147666
246	0xc013a362	-2.306847
247	0x3e0b52c0	0.13605785
248	0x3f20ac0d	0.6276253
249	0xbf66e361	-0.901907
250	0xbf51bb24	-0.8192618
251	0x3f7b8fd7	0.9826636
252	0xbe8e152e	-0.27750534
253	0x3e33ffdb	0.1757807
254	0xc008198e	-2.1265597
255	0x3edc6246	0.43043727

bias f4 [64]
0	0x3c6396e4	0.013890956
1	0xbda4409b	-0.08020135
2	0xbe947a3c	-0.28999507
3	0x3d28577c	0.041099057
4	0x3c962cdc	0.018331937
5	0x3c1ca653	0.009561139
6	0x3ee2ade9	0.44273308
7	0xbeaf5475	-0.34244123
8	0x3cef2b40	0.029195428
9	0xbd1dd598	-0.038533777
10	0xbc18b190	-0.009319678
11	0x3c86bd7b	0.016447773
12	0xbc9e0d08	-0.019293323
13	0xbc9a81cb	-0.018860718
14	0xbd009779	-0.031394456
15	0x3f0feb38	0.5621829
16	0xbd9c8040	-0.07641649
17	0x38c432b1	9.35545e-05
18	0x3c1dbfe9	0.0096282745
19	0x3a876848	0.0010330761
20	0x3ea115ce	0.31461948
21	0xbda5820f	-0.08081447
22	0x3ed6f788	0.41985726
23	0xbdb13b74	-0.08653918
24	0xbf11cebe	-0.5695609
25	0x3db2c20d	0.087284185
26	0xbcceabfd	-0.025228495
27	0xbe216cec	-0.15764207
28	0xbca384cb	-0.019960782
29	0xbcb10645	-0.021609435
30	0x3d1a60a4	0.03768982
31	0x3d6c1a4f	0.057642277
32	0xbc28cb38	-0.010302357
33	0xbc089071	-0.008335219
34	0x3e2bdfa4	0.16784531
35	0xbce66ed4	-0.028129019
36	0x3cf9b268	0.030480579
37	0x3d50ea4d	0.051004697
38	0x3db81495	0.08988301
39	0x3cb6b989	0.022305267
40	0xbcafe555	-0.021471659
41	0x3e7a6842	0.24453834
42	0x3ce8e001	0.028427126
43	0xbcc66b92	-0.024221215
44	0x3d3570d1	0.044297043
45	0x3d706214	0.058687285
46	0x3b52382f	0.0032076945
47	0xbe07f17a	-0.1327571
48	0x3c88f50d	0.016718412
49	0xbeef058f	-0.46683928
50	0xbd1b18ae	-0.037865333
51	0xbc6b96c7	-0.01437921
52	0xbd0e5569	-0.034749422
53	0xbce46927	-0.027882172
54	0x3cca70e1	0.024712028
55	0x3e06b7ed	0.131561
56	0xbcd015f5	-0.025401095
57	0xbd2b84f5	-0.041874845
58	0xbd39ac33	-0.045330238
59	0xbc852574	-0.01625321
60	0x3bbb454e	0.005715049
61	0x3d68654d	0.056737233
62	0x3cbc07e5	0.022952983
63	0x3d0c8348	0.034304887

weight f4 [64, 64]
0	0x3e8e12e3	0.27748784
1	0x3ed1e0a4	0.409917
2	0xbec1d4a3	-0.3785754
3	0xbff7195a	-1.9304612
4	0xbdfa1275	-0.12210552
5	0x3b5c7966	0.0033641695
6	0xbec14e1a	-0.377549
7	0x3e9f03e6	0.31057662
8	0xbf269218	-0.6506667
9	0xbcd8c447	-0.02646078
10	0x3e0b5f4e	0.13610575
11	0x3e15ddbe	0.14635369
12	0x3d660737	0.056159224
13	0x3f08cdea	0.534392
14	0x3d8c2103	0.06842234
15	0xbdb20e92	-0.08694185
16	0x3df9060b	0.12159356
17	0x3e41cb5b	0.1892523
18	0xbd931100	-0.07180977
19	0x3c9607da	0.01831429
20	0xbf87ecdc	-1.0619159
21	0x3e822d6e	0.25425285
22	0xbed33504	-0.41251385
23	0x3f0d6ded	0.5524586
24	0xbdefeb02	-0.11714746
25	0xc05d6ca2	-3.4597554
26	0xbc065684	-0.008199338
27	0x3e0c623c	0.13709348
28	0x3e4a0490	0.19728303
29	0x3e36ab75	0.17838843
30	0xc00ce386	-2.201387
31	0xc023c418	-2.5588436
32	0x3db9743a	0.090553716
33	0x3bc4fd7f	0.0060116644
34	0xc025660f	-2.5843542
35	0x3ec782d8	0.38967013
36	0x3ec02185	0.37525573
37	0xc025b6ea	-2.5892892
38	0xc02d7b5b	-2.710654
39	0x3dabcffc	0.08389279
40	0x3e2e7ef2	0.17040613
41	0xbfe9f463	-1.8277706
42	0x3dbbf4d0	0.09177554
43	0xbd5418a1	-0.0517813
44	0xc00dd6a7	-2.2162263
45	0xc00da940	-2.2134552
46	0x3ed071f1	0.4071193
47	0x3dd602b4	0.10449734
48	0x3f827e42	1.0194781
49	0xbeafbead	-0.34325162
50	0x3ec07117	0.3758628
51	0x3e58e9ae	0.21182892
52	0x3dad6982	0.0846739
53	0x3e9e1d00	0.308815
54	0xc01dd45d	-2.4660866
55	0xc02e9b61	-2.7282336
56	0x3e495ed0	0.19665074
57	0x3f3aa5e4	0.7290938
58	0x3e37f42e	0.17964241
59	0x3ef21f4d	0.47289506
60	0x3f1348ae	0.57532775
61	0xc03a57f7	-2.911619
62	0xbef2175b	-0.47283444
63	0xbe0fdfe3	-0.1405025
64	0xbf7084c0	-0.9395256
65	0xbecd2d90	-0.40073824
66	0x3fd52acd	1.6653687
67	0xbc9b10f6	-0.018928986
68	0x3f12f793	0.5740902
69	0xbfdbf2d2	-1.7183478
70	0x3d6b17dc	0.0573958
71	0x3e07c9a4	0.13260514
72	0x3c678e9f	0.014133125
73	0xbf21bf7e	-0.6318282
74	0xbfca949c	-1.5826602
75	0x3f3a9845	0.72888595
76	0xbfe0a0c8	-1.7549067
77	0xbf3a4ed8	-0.72776556
78	0xbfdb2630	-1.7121029
79	0x3de87d68	0.11352044
80	0xbf4be2ee	-0.7964314
81	0xbfea0ffc	-1.8286128
82	0xbf5d3cc3	-0.8642084
83	0xbfb5a7f5	-1.4191881
84	0x3e2d436a	0.16920248
85	0xbf053844	-0.5203898
86	0x3d01f06c	0.031723425
87	0xbedeacae	-0.4349112
88	0x3f1a1cb3	0.6020004
89	0xbe509277	-0.20368372
90	0xbfe76d71	-1.8080274
91	0xbda4cd64	-0.08046988
92	0xbd4fcc74	-0.05073209
93	0xbf95fcf9	-1.1717826
94	0x3e64df96	0.22350916
95	0x3d645b7e	0.055751316
96	0xbfe9d18e	-1.8267076
97	0xbfa69663	-1.3014644
98	0xbe0b16be	-0.13582894
99	0xbf51db7e	-0.81975543
100	0xbf7f3430	-0.99689007
101	0x3dc9d60a	0.09855278
102	0x3db349d4	0.08754316
103	0xbf51f08f	-0.8200769
104	0xbfd73929	-1.6814319
105	0x3d266ace	0.0406292
106	0xbf956205	-1.1670538
107	0xbff853e0	-1.9400597
108	0x3dafadf6	0.08578102
109	0x3cac06bc	0.020999305
110	0xbf50ac6c	-0.81513095
111	0xbf0e6539	-0.55623204
112	0x3f2c7431	0.67364794
113	0xbe3bf662	-0.18355706
114	0x3ed049ae	0.40681213
115	0xbff7407d	-1.9316555
116	0xc00727f8	-2.1118145
117	0xbf25d5b8	-0.64779234
118	0x3ebccc72	0.3687473
119	0xbcb8dfa5	-0.02256758
120	0xbfa7411a	-1.3066742
121	0xbe807a08	-0.25093102
122	0xbf9f12c3	-1.2427601
123	0xbfbe80f1	-1.48831
124	0xbf243c85	-0.64154845
125	0xbe4559eb	-0.19272582
126	0x3ed77465	0.4208099
127	0x3da4f373	0.08054247
128	0xbfb41580	-1.4069061
129	0xbfa4471c	-1.2834201
130	0x3f7f6404	0.99761987
131	0x3ec91ee4	0.3928138
132	0x3f85b1ea	1.044492
133	0xbf15fbd1	-0.58587366
134	0x3e54feda	0.20800343
135	0x3db36624	0.08759716
136	0x3ef6c040	0.4819355
137	0xbf8dde56	-1.1083477
138	0xbfb3d5f7	-1.4049672
139	0x3f9312b6	1.1490085
140	0xbebad762	-0.3649245
141	0xbfe25dcc	-1.7684875
142	0xbe7ac1ff	-0.24488066
143	0x3e4b94fe	0.19881055
144	0xbff6cba8	-1.9280901
145	0xbf76ac8c	-0.96357036
146	0xbf038429	-0.51373535
147	0xbeaea8f5	-0.3411328
148	0x3e7ee709	0.2489282
149	0xbf7071b2	-0.93923485
150	0xbd7d357d	-0.06181859
151	0xbf5db983	-0.86611193
152	0x3e124663	0.14284663
153	0x3e031935	0.12802584
154	0xbfaafb72	-1.3357985
155	0xbf11fe17	-0.57028335
156	0xbd91263d	-0.070873715
157	0xbfd21e05	-1.6415411
158	0x3e80a97e	0.25129312
159	0x3ea6ff7a	0.32616788
160	0xbf3aa5ff	-0.7290954
161	0xbe010ffd	-0.12603755
162	0x3d914416	0.070930645
163	0xbfba9978	-1.4578085
164	0xbeb4f87a	-0.35345823
165	0x3eb2817e	0.3486442
166	0x3e3042c6	0.17212972
167	0x3d539849	0.051658902
168	0xbfc34500	-1.5255432
169	0xbd8b53f6	-0.06803124
170	0x3c00f812	0.007871645
171	0xbf4faddc	-0.81124663
172	0x3eaae4f1	0.33377793
173	0x3ef75a43	0.48311052
174	0xbf237d35	-0.63862926
175	0xbfc1d996	-1.5144527
176	0x3f5bef36	0.8591188
177	0xbdbbdb89	-0.091727324
178	0xbe60b65d	-0.21944566
179	0xbed8b234	-0.42323458
180	0xbe67d340	-0.22639179
181	0xbfa87bed	-1.3162819
182	0x3f39ce2b	0.7258021
183	0x3e2d3fd8	0.16918886
184	0xbf149185	-0.58034545
185	0xbe88193c	-0.26581752
186	0xbf9d009a	-1.2265809
187	0xbf94c8aa	-1.1623738
188	0xbe4b0751	-0.1982701
189	0x3e928ea9	0.28624466
190	0x3f312473	0.6919624
191	0x3f21881f	0.6309833
192	0xbf2ab3a8	-0.66680384
193	0xbf6a2901	-0.91468817
194	0x3ea1a36c	0.31569993
195	0x3e85d3bf	0.26138112
196	0x3f70b29c	0.94022536
197	0x3bd508e0	0.006501302
198	0xbd8052ce	-0.06265794
199	0x3e9d51b5	0.307264
200	0x3f2426d0	0.64121723
201	0xbf3f8f5c	-0.74828124
202	0xbebac92b	-0.36481604
203	0x3f90912b	1.1294302
204	0xbdff384f	-0.12461912
205	0xbf645815	-0.891969
206	0xbe4d6925	-0.2005964
207	0xbd289991	-0.041162077
208	0xbf389e1e	-0.7211627
209	0xbf1d6c0a	-0.6149298
210	0xbda17480	-0.07883549
211	0xbd052fb2	-0.03251619
212	0xbdeb7e80	-0.11498737
213	0xbebb3224	-0.36561692
214	0x3d9a9cf2	0.07549466
215	0x3e1cdd4c	0.15318793
216	0x3e9bce34	0.30430758
217	0x3ef7661c	0.4832009
218	0xbf217548	-0.6306958
219	0xbf4bde1c	-0.79635787
220	0xbd93188c	-0.07182416
221	0xbf923212	-1.142153
222	0x3f1f5ac8	0.62247896
223	0x3ea87dfb	0.32908615
224	0xbdbf5d89	-0.09344012
225	0xbcd1a6e7	-0.02559228
226	0x3e81e13d	0.25367156
227	0xbf8ba7fb	-1.0910639
228	0xbf18acd9	-0.59638745
229	0x3ee2ad06	0.4427263
230	0x3ea629d2	0.3245378
231	0xbd3f68b2	-0.046730705
232	0xbf787b3a	-0.9706303
233	0xbcd7fe84	-0.02636648
234	0xbea4a460	-0.32156658
235	0xbeda91a5	-0.42689243
236	0x3f4f21bd	0.80910856
237	0x3f055d7b	0.52095765
238	0xbf1712e8	-0.59013224
239	0xbefffc5e	-0.49997228
240	0x3f692578	0.910728
241	0xbec4431f	-0.3833246
242	0xbf489da6	-0.7836555
243	0xbdd477b4	-0.10374394
244	0xbe850d1f	-0.25986573
245	0xbfa31105	-1.2739569
246	0x3f6f059c	0.93367934
247	0x3c37c312	0.011215942
248	0xbf043205	-0.51638824
249	0xbeab6a41	-0.33479503
250	0xbf0145e4	-0.5049727
251	0xbf947a93	-1.1599907
252	0xbf13221d	-0.5747393
253	0x3f048ad1	0.5177432
254	0x3f6db26e	0.9285039
255	0x3f1af06c	0.60523105

bias f4 [64]
0	0x3f0e5f29	0.5561395
1	0x3e8756ba	0.26433355
2	0x3e95f620	0.2928934
3	0x3f07f758	0.5311179
4	0x3f3176ee	0.693221
5	0x3f225c5d	0.63422185
6	0x3f18aba9	0.5963693
7	0x3ee3ebd9	0.44515875
8	0x3f21eab1	0.63248736
9	0x3ef7d3d5	0.48403803
10	0x3f236b55	0.6383565
11	0x3ef08dd7	0.46983215
12	0x3eb2ebb6	0.34945458
13	0x3e9120bf	0.28345296
14	0x3ef9b516	0.4877097
15	0x3f2332f7	0.6374964
16	0x3f348f6d	0.7053135
17	0x3f1c9c99	0.6117645
18	0x3f0aff7b	0.5429608
19	0x3f270858	0.65247107
20	0x3f12c1f4	0.573272
21	0xc004fa62	-2.0777822
22	0x3f1486c4	0.58018136
23	0x3f0ec343	0.55766696
24	0x3f0f39ae	0.5594739
25	0x3f1ce917	0.61293167
26	0x3f217ef5	0.63084346
27	0x3f2a7488	0.6658406
28	0x3f1e4d2b	0.618365
29	0x3eeb237f	0.4592552
30	0x3f21e15f	0.63234514
31	0x3f193a16	0.5985426
32	0x3f29f5a1	0.66390425
33	0x3f240d13	0.6408245
34	0x3f1916cf	0.5980043
35	0x3f22be64	0.63571763
36	0x3f22ebad	0.6364086
37	0x3f198d7e	0.59981525
38	0x3ebf0006	0.37304705
39	0x3e8b7f5e	0.2724561
40	0x3ee2e735	0.44317022
41	0x3f28dd3d	0.6596258
42	0x3f12bdb0	0.5732069
43	0x3f23460f	0.63778776
44	0x3f0a6505	0.54060394
45	0x3f14d230	0.5813322
46	0x3f202476	0.62555635
47	0x3eaf9573	0.34293708
48	0x3f22425e	0.6338252
49	0x3ebf7d27	0.3740017
50	0x3f10c6ff	0.56553644
51	0x3e75d4d9	0.24006976
52	0x3f2b5846	0.6693157
53	0x3f3920b4	0.72315526
54	0xbe201d4d	-0.15636177
55	0x3f157fa8	0.5839791
56	0x3f0c7a90	0.54874516
57	0x3f11457c	0.5674665
58	0x3ea8fb10	0.33004045
59	0x3eaee4a7	0.34158823
60	0x3f2f4eea	0.6847979
61	0x3e857f3f	0.26073644
62	0x3edeea7b	0.4353827
63	0xbe1dab76	-0.15397438

weight f4 [1, 64]
0	0xbda4d434	-0.08048287
1	0x3f0bb88c	0.5457847
2	0x3e7c6ec9	0.24651636
3	0x3e53f36e	0.2069833
4	0xbd94aebf	-0.07259893
5	0xbdb64967	-0.08900719
6	0xbdabcb96	-0.0838844
7	0xbdaff977	-0.085925035
8	0xbd8ae6a8	-0.067822754
9	0x3e7117f9	0.23544301
10	0xbdb0f5e6	-0.086406514
11	0x3e57a3d9	0.21058597
12	0x3eec49fb	0.46150193
13	0x3eaeba17	0.3412635
14	0x3e73d8e7	0.2381321
15	0xbd8f97c6	-0.0701137
16	0xbd99c535	-0.075083174
17	0xbdab9687	-0.0837832
18	0x3e6528d4	0.22378856
19	0x3e66aaa5	0.22526033
20	0x3e605062	0.21905664
21	0x3f5ec0f5	0.8701318
22	0xbda62be9	-0.08113844
23	0xbdacfe87	-0.08446985
24	0xbdff910e	-0.12478839
25	0x3e7875fd	0.24263759
26	0xbdb05207	-0.086093955
27	0xbda04549	-0.07825715
28	0xbd966648	-0.07343727
29	0x3e538709	0.2065698
30	0xbda0ca34	-0.07851067
31	0x3e714d0f	0.23564552
32	0xbdabe41a	-0.08393116
33	0xbda3c985	-0.07997421
34	0x3e6f10a1	0.23346187
35	0xbd9f38ae	-0.07774483
36	0xbda42f68	-0.080168545
37	0xbda45d7d	-0.08025644
38	0x3e907053	0.28210697
39	0x3ee169e4	0.440261
40	0x3e6409d2	0.22269371
41	0xbd913520	-0.07090211
42	0x3e62faa5	0.22165926
43	0xbdc2d5af	-0.09513413
44	0xbdbfc921	-0.09364534
45	0x3e5ab3a7	0.21357594
46	0xbd9c170a	-0.07621582
47	0x3ea1f95a	0.31635553
48	0x3e7695b3	0.24080543
49	0x3e6d407e	0.23169133
50	0xbe6c7460	-0.23091269
51	0x3fb6ad9c	1.4271731
52	0xbd9a0b44	-0.0752168
53	0xbdae7e3c	-0.08520171
54	0x3d9f5fa0	0.07781911
55	0xbda5bb0d	-0.08092318
56	0x3e62fd3c	0.22166914
57	0xbe1aa158	-0.1510061
58	0x3ea451b6	0.3209359
59	0x3e778da2	0.24175122
60	0xbdad0b8b	-0.08449467
61	0x3f862832	1.0481017
62	0x3e672fd2	0.22576836
63	0x3c1363d0	0.008995965
