src/main/resources/org/clas/aiModel/mlp_16h_2l_6cls.pt (torch, 21687 bytes, 5 tensors)

weight f4 [16, 12]
0	0xbf419afb	-0.75627106
1	0x3f355b3b	0.7084233
2	0x3f8db64c	1.1071258
3	0xbf93bfde	-1.1542928
4	0xbeac5961	-0.3366194
5	0x3ee6a636	0.45048684
6	0x3ace8416	0.0015755917
7	0xb98d32a0	-0.00026931334
8	0xb970ef40	-0.00022977311
9	0xba418cf3	-0.0007383369
10	0xbc19c621	-0.0093856165
11	0xbb8ed58a	-0.004358952
12	0xbf2e5a3f	-0.68106455
13	0x3f25f245	0.648228
14	0x3f83f013	1.030764
15	0xbf82d1b1	-1.0220243
16	0xbeafd702	-0.34343725
17	0x3ebcd846	0.36883754
18	0xbbc4d901	-0.006007314
19	0xbbf7d61b	-0.007563365
20	0x39f48993	0.00046641807
21	0x3a8c3ab2	0.0010698645
22	0x3c0786fd	0.00827193
23	0x3b9aa67b	0.004719553
24	0x3f356006	0.70849645
25	0xbf2c56df	-0.67320055
26	0x3e8257f8	0.2545774
27	0xbebea0a8	-0.37231946
28	0xbf578631	-0.84189135
29	0x3f680aa1	0.9064122
30	0x3c13fae4	0.009031985
31	0x3c75646f	0.0149775585
32	0xbbbc2dbb	-0.005742756
33	0xbc4f924a	-0.012669155
34	0xbbc5cbb7	-0.0060362476
35	0xbbfdf44c	-0.0077500697
36	0xbcceeed2	-0.025260363
37	0x3eb83d17	0.35984108
38	0x3e89bc89	0.26901653
39	0xbf2a7020	-0.6657734
40	0x3ec7d91b	0.39032826
41	0xbd9ca832	-0.07649268
42	0xbf4eacba	-0.8073231
43	0x3f05b48d	0.52228624
44	0x3e9a8f9f	0.301877
45	0xbe50a33e	-0.20374772
46	0xbf1b1357	-0.60576385
47	0x3f0a89d9	0.5411659
48	0x3db0b6ac	0.08628592
49	0xbe790cdb	-0.2432131
50	0x3f4ea65c	0.80722594
51	0x3f649639	0.8929172
52	0xbf106202	-0.5639955
53	0xbf1d325b	-0.6140496
54	0xbd54d55f	-0.0519613
55	0xbc7fc612	-0.0156111885
56	0xbddfa0ee	-0.10919367
57	0xbd823271	-0.06357277
58	0xbdb714e6	-0.08939533
59	0xbd96294c	-0.073320955
60	0x3f84d950	1.0378819
61	0xbf8bea7d	-1.0930935
62	0xbf57a0e6	-0.84229887
63	0x3f85fdfd	1.0468136
64	0xbeb9d44b	-0.3629478
65	0x3e56cb97	0.20976101
66	0xb9dd2e86	-0.00042187067
67	0x3a4da20a	0.0007844275
68	0xba700b63	-0.000915697
69	0xbb82aca2	-0.0039878646
70	0x3baa2cdb	0.0051933355
71	0xbc7b8c91	-0.015353338
72	0xbdf45830	-0.11930883
73	0xbf0fca9a	-0.5616852
74	0xbe92658b	-0.28593096
75	0xbefbddfd	-0.491928
76	0x3f291ed2	0.66062653
77	0x3f399f23	0.7250845
78	0x3d8fda5f	0.07024073
79	0x3d48ab23	0.048991334
80	0xbd1caf99	-0.0382534
81	0x3ca9de02	0.020735744
82	0x3dff2941	0.124590404
83	0x3dab0dce	0.083522424
84	0xbf2f0ada	-0.68375933
85	0x3f52e230	0.82376385
86	0xbf16f53d	-0.58967954
87	0x3e92e903	0.286934
88	0x3f9240cd	1.1426026
89	0xbf739611	-0.9515086
90	0xbcd74a27	-0.026280476
91	0xbca66c5d	-0.020315344
92	0xbc28e4b9	-0.010308438
93	0x3b1cdca2	0.0023935218
94	0x3bfc3319	0.007696521
95	0x3a24a56d	0.0006280754
96	0x3eeec842	0.4663716
97	0xbf121d31	-0.5707579
98	0xbf62df13	-0.88621634
99	0x3f885971	1.0652295
100	0x3efa6e94	0.4891249
101	0xbf0ab93b	-0.5418889
102	0x3bb3827b	0.005478201
103	0xbc2573b6	-0.010098388
104	0xbbd07310	-0.006361373
105	0xbafbebee	-0.0019220093
106	0xbbd004ff	-0.006348252
107	0xbb4029b0	-0.0029321723
108	0x3f16b810	0.5887461
109	0xbf1d6271	-0.61478335
110	0xbf5a5e7b	-0.85300416
111	0x3f792a69	0.9733034
112	0x3e887d2f	0.26658008
113	0xbebc9b43	-0.36837205
114	0xba8504e2	-0.001014855
115	0x3b9b24ce	0.004734612
116	0xbb2069bb	-0.0024477083
117	0xbae1bc96	-0.0017222341
118	0x3bde5732	0.006785297
119	0x3b3e7755	0.0029062827
120	0xbefd7ec9	-0.49510792
121	0xbf5014f0	-0.8128195
122	0x3f42b546	0.7605785
123	0x3f8e4ae7	1.1116608
124	0xbe9e2b23	-0.30892286
125	0xbe84dcf1	-0.25949815
126	0x3c179b52	0.00925334
127	0xbc28fad5	-0.010313709
128	0x3ad05b7d	0.0015896406
129	0xba7cb254	-0.000963961
130	0x3c900da5	0.017584631
131	0x3c988bdf	0.018621383
132	0xbf57fdbf	-0.8437156
133	0x3f8c63f1	1.0968
134	0xbdcc84e4	-0.099862844
135	0xbedbf0af	-0.42957065
136	0x3f780ba5	0.9689277
137	0xbf323e69	-0.6962648
138	0x3a6dfd36	0.0009078564
139	0xba4c1455	-0.0007785012
140	0xbae4f898	-0.0017469106
141	0x3c01e6d2	0.007928567
142	0xbbab7b6a	-0.005233218
143	0xbc068638	-0.008210711
144	0xbeade5e1	-0.33964446
145	0xbe025be0	-0.1273036
146	0xbece94f0	-0.40348005
147	0xbe99a302	-0.30007178
148	0x3f1c3a05	0.6102603
149	0x3f69149c	0.9104707
150	0x3cf96934	0.030445673
151	0x3d0cdd77	0.034390893
152	0xbd1a5e36	-0.037687503
153	0x3c56ab1d	0.01310232
154	0x3dbd8f64	0.09255865
155	0x3d996215	0.07489411
156	0x3eceadf3	0.40367088
157	0xbe9bedd7	-0.30454895
158	0x3f191491	0.59797007
159	0xbf3b18b7	-0.73084587
160	0xbf875459	-1.0572616
161	0x3f846b94	1.034533
162	0x3c8fc67c	0.0175507
163	0x3c3d79be	0.01156467
164	0x3c47464a	0.012162754
165	0x3c403bf1	0.011733041
166	0xbb743a62	-0.0037266244
167	0xba39543d	-0.00070697424
168	0x3eb16578	0.34647727
169	0xbefa9cee	-0.48947853
170	0xbea67904	-0.32514203
171	0xbf1da3e4	-0.615782
172	0x3f293ce0	0.6610851
173	0xbefbcdca	-0.49180442
174	0x3f6b55d1	0.9192782
175	0x3f57393e	0.8407172
176	0xbe9710a0	-0.2950487
177	0xbce08ee9	-0.027411895
178	0x3f2aaf5a	0.66673815
179	0xbf0e3645	-0.5555156
180	0x3ed1f0d4	0.4100405
181	0x3e83a5d0	0.25712442
182	0xbfae9bee	-1.3641336
183	0x3ee531a4	0.44764435
184	0x3f592d1f	0.84834474
185	0xbf38e281	-0.7222062
186	0x3d308152	0.04309208
187	0x3d0717a7	0.03298154
188	0x3bf624cf	0.007511712
189	0x3c35d4af	0.011098071
190	0x3b7c915f	0.0038538796
191	0x3cc35e62	0.023848716

bias f4 [16]
0	0xbc56bdf6	-0.013106814
1	0xbbcc6e22	-0.006238715
2	0xbbfcbe67	-0.0077131274
3	0xbe7629e5	-0.24039419
4	0xbecdd7df	-0.4020376
5	0xbb817a57	-0.0039513516
6	0xbe2c1c94	-0.16807777
7	0xbd25a1fb	-0.04043768
8	0xbc459acb	-0.012060831
9	0x39a6e1c9	0.0003183021
10	0x3c850cab	0.016241392
11	0xbc9012f1	-0.017587157
12	0xbebd0cb8	-0.36923766
13	0x3c4d46ee	0.012529118
14	0x3e98347c	0.29727542
15	0x3d0e1abc	0.034693465

weight f4 [16, 16]
0	0xc0eb2ceb	-7.349233
1	0xc0f67dc4	-7.7028522
2	0xc0d8b23b	-6.7717566
3	0xbd687227	-0.05674949
4	0xbe96035b	-0.29299435
5	0xc0f062a2	-7.51204
6	0xbdf23491	-0.118264325
7	0xc0ada066	-5.42583
8	0xc0affb79	-5.4994473
9	0xc13093a7	-11.036048
10	0xc07dccc4	-3.965623
11	0xc0ebfd28	-7.374653
12	0x3e9346b0	0.28764868
13	0xc0b5807f	-5.6719356
14	0xbd955298	-0.07291144
15	0xbfe9e4b3	-1.8272918
16	0xbff8a7ba	-1.9426186
17	0xc02bc0f9	-2.683653
18	0x40ec7cbd	7.390227
19	0x3c763b29	0.015028753
20	0xbfc115cd	-1.5084778
21	0xc0c0d8c3	-6.02646
22	0xbf290aa5	-0.6603187
23	0x40a47459	5.1392026
24	0x3f99e33a	1.2022469
25	0x404c5e6c	3.193263
26	0x4015ef54	2.3427324
27	0x408ae586	4.340518
28	0xbf51ddb7	-0.81978935
29	0x40fd8489	7.9224286
30	0x3cec2b0c	0.02882912
31	0xbfa5d7e0	-1.2956505
32	0xc096c9ff	-4.7121577
33	0xc09e22a9	-4.941731
34	0xc17b2d23	-15.69852
35	0xbdc11e14	-0.09429565
36	0xbeaacde2	-0.333602
37	0xc157fba8	-13.4989395
38	0xbe3d2298	-0.18470228
39	0xc16707ba	-14.439386
40	0xc0c75d9f	-6.2301784
41	0xc17da099	-15.851708
42	0xc0db2268	-6.84795
43	0xc1926cfd	-18.303217
44	0x3d09dfb2	0.033660598
45	0xc17f8a22	-15.971224
46	0xbdf09b0a	-0.11748321
47	0xc04e94e9	-3.2278388
48	0x406a1ab1	3.657879
49	0x4089d34e	4.307044
50	0x403445ad	2.8167527
51	0x3d6917b8	0.056907386
52	0xbe241fd4	-0.16027766
53	0x403aa6a7	2.9164217
54	0xbd71318f	-0.058885153
55	0x401d40be	2.4570765
56	0x404b3e4e	3.1756778
57	0x40a0c8ef	5.024528
58	0x3fe5dcc8	1.7958002
59	0x403e006c	2.9687757
60	0xbdf761fc	-0.12079236
61	0x4000613c	2.0059347
62	0x3ddf6cf9	0.10909457
63	0xbf33c641	-0.70224386
64	0xc14b2244	-12.695866
65	0xc14f45d2	-12.954546
66	0xc0aedfad	-5.464804
67	0xbdc56e9e	-0.09640239
68	0x3e6b37be	0.22970483
69	0xc0e706b1	-7.219567
70	0x3ef2a703	0.47393045
71	0xc023dc5d	-2.560325
72	0xc098a8eb	-4.77062
73	0xc12d7fab	-10.843669
74	0xc09cb184	-4.8966694
75	0xc08f79b4	-4.4836063
76	0xbee4161b	-0.44548115
77	0xc094868a	-4.641423
78	0xc08691e8	-4.205311
79	0xc038e9a9	-2.8892615
80	0xc191723f	-18.180784
81	0xc18846be	-17.034542
82	0xc00c1a9a	-2.1891236
83	0xbe92b021	-0.2865
84	0x3f0870ea	0.53297293
85	0xc086b1ad	-4.209189
86	0x3e08eb76	0.13371071
87	0xbfbdd8c3	-1.4831775
88	0xc0a9087c	-5.2822857
89	0xc131ec26	-11.120153
90	0xc04948be	-3.1450648
91	0xc056f522	-3.3587117
92	0x3d86179c	0.06547472
93	0xbfda74c6	-1.7066886
94	0xbe302c14	-0.17204314
95	0xc003c33c	-2.0587912
96	0xc13b0a2a	-11.689981
97	0xc141dd41	-12.116517
98	0xc0193069	-2.3935797
99	0xbe407123	-0.18793158
100	0x3ee91fed	0.4553217
101	0xc09d8c7f	-4.9234004
102	0xbdd4c9a9	-0.10390026
103	0xc00a5fd1	-2.1620982
104	0xc0b40c60	-5.6265106
105	0xc13886e3	-11.532931
106	0xc04d4c1f	-3.207771
107	0xc07bde85	-3.9354565
108	0x3eb70e1b	0.3575295
109	0xbfd2e1bf	-1.6475142
110	0xbe150dec	-0.14556092
111	0xbfef1e0c	-1.8681045
112	0x40671ca4	3.611123
113	0x407bfe4c	3.937396
114	0x409ab8d6	4.835063
115	0xbcd2c547	-0.025728835
116	0xbf244cd4	-0.6417973
117	0x406dfcad	3.718547
118	0xbe57412b	-0.21020953
119	0x408f6e3a	4.4822054
120	0x404cf1be	3.2022548
121	0x4097e89a	4.7471437
122	0x4020620a	2.5059838
123	0x40661890	3.5952492
124	0xbea2f795	-0.31829515
125	0x408cb1c4	4.3967
126	0xbda953a2	-0.08267905
127	0x4028f457	2.6399133
128	0xbd1737cd	-0.03691845
129	0x3e11e8e7	0.14249001
130	0x3e3e62d2	0.18592384
131	0xbdcfe2e4	-0.10150698
132	0x3e128eeb	0.14312331
133	0x3d18d78d	0.03731494
134	0xbe06a6ef	-0.13149618
135	0xbd894e8f	-0.06704437
136	0xbe6977c1	-0.22799589
137	0x3c8024e8	0.015642598
138	0x3c19f18b	0.009395967
139	0xbe30d6e2	-0.17269471
140	0x3d438d03	0.0477419
141	0x3e013d60	0.12621069
142	0xbdd81bfb	-0.10552212
143	0xbd8d1427	-0.068886094
144	0x40976052	4.730508
145	0x40aab763	5.334886
146	0x40232212	2.5489545
147	0x3d57a9dc	0.052652225
148	0xbe54dcb0	-0.2078731
149	0x405a8914	3.4146166
150	0xbd6a9ca0	-0.057278275
151	0x40068558	2.1018887
152	0x40633eed	3.5507157
153	0x4095c394	4.6801243
154	0x3fec78bc	1.8474345
155	0x3fed96a4	1.8561597
156	0xbe0518f6	-0.12997803
157	0x3fe0437a	1.7520592
158	0x3d8e4089	0.06945903
159	0x3fda045f	1.7032584
160	0x40992ac3	4.78647
161	0x40ac3bb7	5.3822894
162	0x40243f8c	2.5663786
163	0x3d6d5d23	0.05795015
164	0xbe4918ab	-0.19638316
165	0x40566c5f	3.3503644
166	0xbd5b6281	-0.053560738
167	0x40069c3d	2.103286
168	0x4062e53e	3.5452418
169	0x409be4ae	4.871665
170	0x3ff21dae	1.8915308
171	0x3ff0156b	1.8756536
172	0xbe02455e	-0.12721774
173	0x3fdb26a6	1.712117
174	0x3d942bc1	0.07234908
175	0x3fe00916	1.7502773
176	0xc161752a	-14.0911045
177	0xc155dc21	-13.366242
178	0xc102364e	-8.138258
179	0xbe28847d	-0.1645679
180	0xbd881c58	-0.06646031
181	0xc108c387	-8.547736
182	0x3e75ba96	0.23996958
183	0xc078c90a	-3.8872705
184	0xc0bb0b87	-5.845157
185	0xc15ef885	-13.935674
186	0xc09f1ba6	-4.972125
187	0xc0d4829b	-6.640943
188	0xbe8989d2	-0.2686296
189	0xc101ff4e	-8.12483
190	0xc02a2f91	-2.6591532
191	0xc08b924f	-4.36161
192	0x4095603c	4.6679974
193	0x40a45edc	5.1365795
194	0x401fb8a5	2.4956448
195	0x3d5e594d	0.054284383
196	0xbe5db874	-0.21652395
197	0x4053c683	3.3089912
198	0xbd6c4e28	-0.057691723
199	0x400ac36f	2.1681783
200	0x4060e37b	3.5138843
201	0x40976837	4.7314715
202	0x3fde7211	1.737856
203	0x3fe2da29	1.7722827
204	0xbe0261fa	-0.12732688
205	0x3ff22ba0	1.8919563
206	0x3d8c5ec8	0.068540156
207	0x3fd7945e	1.6842153
208	0xbd81f214	-0.06345001
209	0x3e0c3fb2	0.13696173
210	0x3e3a8ace	0.18217012
211	0xbdf162a4	-0.11786392
212	0x3d65a738	0.056067675
213	0xbdffa4b8	-0.124825895
214	0xbe2f5356	-0.17121634
215	0xbe664fce	-0.2249138
216	0x3d77c008	0.06048587
217	0x3e011856	0.1260694
218	0xbe79e060	-0.24401999
219	0xbdc597fc	-0.09648129
220	0xbe4e7a96	-0.2016395
221	0xbcf5b670	-0.02999422
222	0xbe6905b6	-0.22756085
223	0xbe0f5bf4	-0.13999921
224	0x40938932	4.6104975
225	0x40a9ce15	5.3064065
226	0x40275d9b	2.6150882
227	0x3d32ac95	0.04362162
228	0xbe4e8ea1	-0.20171596
229	0x404a832a	3.1642556
230	0xbd6e36d7	-0.058157768
231	0x400194c2	2.0247045
232	0x406052c2	3.5050511
233	0x409198fc	4.549925
234	0x3fda8dc5	1.7074515
235	0x3fd6f67e	1.6793973
236	0xbdf71ac1	-0.1206565
237	0x3fc97978	1.5740194
238	0x3d9c4569	0.076304264
239	0x3fe40ad1	1.7815801
240	0x409026de	4.5047445
241	0x40a4abe3	5.1459823
242	0x4033ab4e	2.8073306
243	0x3d20960c	0.039205596
244	0xbe8aa10b	-0.2707599
245	0x4051b4e9	3.2766669
246	0xbd93d421	-0.07218195
247	0x40179170	2.3682518
248	0x405c3d52	3.4412427
249	0x40997c89	4.796452
250	0x3fee140c	1.8599868
251	0x4000b7de	2.0112224
252	0xbe17e17e	-0.14832112
253	0x40051768	2.0795536
254	0x3d15fbf2	0.036617227
255	0x3fe7ca97	1.81087

bias f4 [16]
0	0x3da20b40	0.07912302
1	0x36e59e6f	6.843176e-06
2	0x3d64a4ba	0.055821158
3	0xb707b378	-8.088413e-06
4	0x3d8457a1	0.064620264
5	0x3d89b962	0.06724812
6	0x3da22d84	0.07918838
7	0x384ea3ce	4.9266782e-05
8	0xbe874726	-0.2642147
9	0x36032e86	1.9547601e-06
10	0xb798d57f	-1.8219229e-05
11	0x3d606d16	0.054791532
12	0x35b46414	1.3440172e-06
13	0xbe78e174	-0.24304754
14	0xb675103e	-3.65173e-06
15	0x3631c1c7	2.6487849e-06

weight f4 [1, 16]
0	0x4128c06f	10.546981
1	0xc0ff0ab6	-7.9700575
2	0x418e544e	17.791164
3	0xc0854b2e	-4.165427
4	0x41309e23	11.038608
5	0x412de122	10.867464
6	0x4116dbf2	9.428698
7	0xc06388f2	-3.5552335
8	0x3e046cf0	0.12932181
9	0xc0712af2	-3.7682462
10	0xc06bbece	-3.6835208
11	0x417e05de	15.876432
12	0xc073a52c	-3.8069563
13	0x3d4818c8	0.04885176
14	0xc0771365	-3.8605587
15	0xc077bb04	-3.8707895
